…
cheduler': {'_name': 'inverse_sqrt', 'warmup_updates': 100, 'warmup_init_lr': 5e-06, 'lr': [2e-05]}, 'scoring': {'_name': 'bleu', 'pad': 1, 'eos': 2, 'unk': 3}, 'bpe': None, 'tokenizer': None, 'ema': {'_name': None, 'store_ema': False, 'ema_decay': 0.9999, 'ema_start_update': 0, 'ema_seed_model': None, 'ema_update_freq': 1, 'ema_fp32': False}}
2023-05-17 18:08:38 | INFO | src.language_modeling_prompt | dictionary: 42384 types
2023-05-17 18:08:41 | INFO | fairseq_cli.train | TransformerLanguageModelPrompt(
  (decoder): TransformerDecoder(
    (dropout_module): FairseqDropout()
    (embed_tokens): Embedding(42393, 1024, padding_idx=1)
    (embed_positions): LearnedPositionalEmbedding(1026, 1024, padding_idx=1)
    (layers): ModuleList(
      (0-23): 24 x TransformerDecoderLayerBase(
        (dropout_module): FairseqDropout()
        (self_attn): MultiheadAttention(
          (dropout_module): FairseqDropout()
          (k_proj): Linear(in_features=1024, out_features=1024, bias=True)
          (v_proj): Linear(in_features=1024, out_features=1024, bias=True)
          (q_proj): Linear(in_features=1024, out_features=1024, bias=True)
          (out_proj): Linear(in_features=1024, out_features=1024, bias=True)
        )
        (activation_dropout_module): FairseqDropout()
        (self_attn_layer_norm): LayerNorm((1024,), eps=1e-05, elementwise_affine=True)
        (fc1): Linear(in_features=1024, out_features=4096, bias=True)
        (fc2): Linear(in_features=4096, out_features=1024, bias=True)
        (final_layer_norm): LayerNorm((1024,), eps=1e-05, elementwise_affine=True)
      )
    )
    (layer_norm): LayerNorm((1024,), eps=1e-05, elementwise_affine=True)
    (output_projection): Linear(in_features=1024, out_features=42393, bias=False)
  )
)
2023-05-17 18:08:41 | INFO | fairseq_cli.train | task: LanguageModelingPromptTask
2023-05-17 18:08:41 | INFO | fairseq_cli.train | model: TransformerLanguageModelPrompt
2023-05-17 18:08:41 | INFO | fairseq_cli.train | criterion: CrossEntropyCriterion
2023-05-17 18:08:41 | INFO | fairseq_cli.train | num. shared model params: 346,772,480 (num. trained: 346,772,480)
…
